…
Namespace(SGD=False, adam=False, alpha=0.0, beta=1.0, cached=False, cpu=False, dataset='arxiv-year', decay_rate=1.0, delta=0.0, directed=True, display_step=1, dropout=0.7, epochs=500, exponent=3.0, gamma=0.0, gat_heads=8, gcn2_alpha=0.1, gpr_alpha=0.1, hidden_channels=256, hops=1, inner_activation=False, inner_dropout=False, jk_type='max', link_init_layers_A=1, link_init_layers_X=1, lp_alpha=0.1, lr=0.005, method='linkx', no_bn=False, norm_func_id=2, norm_layers=1, num_layers=3, num_mlp_layers=1, orders=1, orders_func_id=2, print_prop=False, rand_split=False, rocauc=False, runs=5, sampling=False, sub_dataset='None', theta=0.5, train_prop=0.5, valid_prop=0.25, weight_decay=0.1)
num nodes 169343 | num classes 5 | num node feats 128
MODEL: LINKX(
  (mlpA): MLP(
    (lins): ModuleList(
      (0): Linear(in_features=169343, out_features=256, bias=True)
    )
    (bns): ModuleList()
  )
  (mlpX): MLP(
    (lins): ModuleList(
      (0): Linear(in_features=128, out_features=256, bias=True)
    )
    (bns): ModuleList()
  )
  (W): Linear(in_features=512, out_features=256, bias=True)
  (mlp_final): MLP(
    (lins): ModuleList(
      (0): Linear(in_features=256, out_features=256, bias=True)
      (1): Linear(in_features=256, out_features=256, bias=True)
      (2): Linear(in_features=256, out_features=5, bias=True)
    )
    (bns): ModuleList(
      (0): BatchNorm1d(256, eps=1e-05, momentum=0.1, affine=True, track_running_stats=True)
      (1): BatchNorm1d(256, eps=1e-05, momentum=0.1, affine=True, track_running_stats=True)
    )
  )
)
Epoch: 00, Loss: 1.9765, Train: 28.83%, Valid: 28.64%, Test: 28.90%, Time: 0.3622
Epoch: 01, Loss: 1.7844, Train: 39.09%, Valid: 37.30%, Test: 37.65%, Time: 0.2398
Epoch: 02, Loss: 1.5702, Train: 39.81%, Valid: 37.69%, Test: 38.27%, Time: 0.2401
Epoch: 03, Loss: 1.4204, Train: 40.95%, Valid: 37.22%, Test: 37.80%, Time: 0.2395
…
Namespace(SGD=False, adam=False, alpha=0.0, beta=1.0, cached=False, cpu=False, dataset='arxiv-year', decay_rate=1.0, delta=0.0, directed=True, display_step=1, dropout=0.7, epochs=500, exponent=3.0, gamma=0.0, gat_heads=8, gcn2_alpha=0.1, gpr_alpha=0.1, hidden_channels=256, hops=1, inner_activation=False, inner_dropout=False, jk_type='max', link_init_layers_A=1, link_init_layers_X=1, lp_alpha=0.1, lr=0.005, method='gprgnn', no_bn=False, norm_func_id=2, norm_layers=1, num_layers=3, num_mlp_layers=1, orders=1, orders_func_id=2, print_prop=False, rand_split=False, rocauc=False, runs=5, sampling=False, sub_dataset='None', theta=0.5, train_prop=0.5, valid_prop=0.25, weight_decay=0.1)
num nodes 169343 | num classes 5 | num node feats 128
MODEL: GPRGNN(
  (mlp): MLP(
    (lins): ModuleList(
      (0): Linear(in_features=128, out_features=256, bias=True)
      (1): Linear(in_features=256, out_features=256, bias=True)
      (2): Linear(in_features=256, out_features=5, bias=True)
    )
    (bns): ModuleList(
      (0): BatchNorm1d(256, eps=1e-05, momentum=0.1, affine=True, track_running_stats=True)
      (1): BatchNorm1d(256, eps=1e-05, momentum=0.1, affine=True, track_running_stats=True)
    )
  )
  (prop1): GPR_prop(K=10, temp=Parameter containing:
  tensor([ 0.0249,  0.1098,  0.0524,  0.0229, -0.0390,  0.0744, -0.0318,  0.1999,
           0.2366, -0.0595,  0.1488], device='cuda:0', dtype=torch.float64,
         requires_grad=True))
)
Epoch: 00, Loss: 1.9334, Train: 23.18%, Valid: 23.48%, Test: 23.83%, Time: 0.1037
…
Namespace(SGD=False, adam=False, alpha=0.0, beta=1.0, cached=False, cpu=False, dataset='arxiv-year', decay_rate=1.0, delta=0.0, directed=True, display_step=1, dropout=0.7, epochs=500, exponent=3.0, gamma=0.0, gat_heads=8, gcn2_alpha=0.1, gpr_alpha=0.1, hidden_channels=256, hops=1, inner_activation=False, inner_dropout=False, jk_type='max', link_init_layers_A=1, link_init_layers_X=1, lp_alpha=0.1, lr=0.005, method='gcn2', no_bn=False, norm_func_id=2, norm_layers=1, num_layers=3, num_mlp_layers=1, orders=1, orders_func_id=2, print_prop=False, rand_split=False, rocauc=False, runs=5, sampling=False, sub_dataset='None', theta=0.5, train_prop=0.5, valid_prop=0.25, weight_decay=0.1)
num nodes 169343 | num classes 5 | num node feats 128
MODEL: GCNII(
  (lins): ModuleList(
    (0): Linear(in_features=128, out_features=256, bias=True)
    (1): Linear(in_features=256, out_features=5, bias=True)
  )
  (bns): ModuleList(
    (0): BatchNorm1d(256, eps=1e-05, momentum=0.1, affine=True, track_running_stats=True)
    (1): BatchNorm1d(256, eps=1e-05, momentum=0.1, affine=True, track_running_stats=True)
    (2): BatchNorm1d(256, eps=1e-05, momentum=0.1, affine=True, track_running_stats=True)
  )
  (convs): ModuleList(
    (0): GCN2Conv(256, alpha=0.1, beta=0.4054651081081644)
    (1): GCN2Conv(256, alpha=0.1, beta=0.22314355131420976)
    (2): GCN2Conv(256, alpha=0.1, beta=0.15415067982725836)
  )
)
Epoch: 00, Loss: 1.9371, Train: 22.17%, Valid: 22.18%, Test: 22.73%, Time: 0.2699
Epoch: 01, Loss: 1.8349, Train: 22.39%, Valid: 22.44%, Test: 22.94%, Time: 0.1278
…
Namespace(SGD=False, adam=False, alpha=0.0, beta=1.0, cached=False, cpu=False, dataset='arxiv-year', decay_rate=1.0, delta=0.0, directed=True, display_step=1, dropout=0.7, epochs=500, exponent=3.0, gamma=0.0, gat_heads=8, gcn2_alpha=0.1, gpr_alpha=0.1, hidden_channels=256, hops=1, inner_activation=False, inner_dropout=False, jk_type='max', link_init_layers_A=1, link_init_layers_X=1, lp_alpha=0.1, lr=0.005, method='mixhop', no_bn=False, norm_func_id=2, norm_layers=1, num_layers=3, num_mlp_layers=1, orders=1, orders_func_id=2, print_prop=False, rand_split=False, rocauc=False, runs=5, sampling=False, sub_dataset='None', theta=0.5, train_prop=0.5, valid_prop=0.25, weight_decay=0.1)
num nodes 169343 | num classes 5 | num node feats 128
MODEL: MixHop(
  (convs): ModuleList(
    (0): MixHopLayer(
      (lins): ModuleList(
        (0): Linear(in_features=128, out_features=256, bias=True)
        (1): Linear(in_features=128, out_features=256, bias=True)
      )
    )
    (1): MixHopLayer(
      (lins): ModuleList(
        (0): Linear(in_features=512, out_features=256, bias=True)
        (1): Linear(in_features=512, out_features=256, bias=True)
      )
    )
    (2): MixHopLayer(
      (lins): ModuleList(
        (0): Linear(in_features=512, out_features=5, bias=True)
        (1): Linear(in_features=512, out_features=5, bias=True)
      )
    )
  )
  (bns): ModuleList(
    (0): BatchNorm1d(512, eps=1e-05, momentum=0.1, affine=True, track_running_stats=True)
    (1): BatchNorm1d(512, eps=1e-05, momentum=0.1, affine=True, track_running_stats=True)
  )
  (final_project): Linear(in_features=10, out_features=5, bias=True)
)
Epoch: 00, Loss: 1.6659, Train: 23.01%, Valid: 23.10%, Test: 23.23%, Time: 0.2698
Epoch: 01, Loss: 1.7439, Train: 22.20%, Valid: 22.21%, Test: 22.77%, Time: 0.1217
Epoch: 02, Loss: 1.6828, Train: 24.08%, Valid: 24.14%, Test: 24.45%, Time: 0.1206
Epoch: 03, Loss: 1.5751, Train: 22.18%, Valid: 22.23%, Test: 22.17%, Time: 0.1204
Epoch: 04, Loss: 1.5046, Train: 19.53%, Valid: 19.49%, Test: 19.31%, Time: 0.1204
…
